2026-06-10 10:14:05,349 - __main__ - INFO - Starting TileLang daemon
2026-06-10 10:14:05,350 - __main__ - INFO -   Socket: /tmp/tilelang_daemon_83986.sock
2026-06-10 10:14:05,350 - __main__ - INFO -   Template dir: /Users/melikanorouzbeygi/Workspace/Huawei/ptoas-pr786-vf-fusion/lib/TileOps
2026-06-10 10:14:05,350 - __main__ - INFO -   Max entries: 1000
2026-06-10 10:14:05,485 - tilelang_dsl.daemon_server - INFO - RPC server started at /tmp/tilelang_daemon_83986.sock
TileLang daemon started (pid=83987, socket=/tmp/tilelang_daemon_83986.sock)
Info: TileLang daemon started successfully
2026-06-10 10:14:06,585 - tilelang_dsl.daemon_server - ERROR - Error processing instantiate: No kernel found for target='a5', op='pto.texp', operand_types=(f32, f32)
Traceback (most recent call last):
  File "/Users/melikanorouzbeygi/Workspace/Huawei/ptoas-pr786-vf-fusion/tilelang-dsl/python/tilelang_dsl/daemon_server.py", line 162, in _process_request
    result = await self._rpc_instantiate(params)
             ^^^^^^^^^^^^^^^^^^^^^^^^^^^^^^^^^^^
  File "/Users/melikanorouzbeygi/Workspace/Huawei/ptoas-pr786-vf-fusion/tilelang-dsl/python/tilelang_dsl/daemon_server.py", line 202, in _rpc_instantiate
    mlir_text = await self.cache.instantiate(
                ^^^^^^^^^^^^^^^^^^^^^^^^^^^^^
    ...<4 lines>...
    )
    ^
  File "/Users/melikanorouzbeygi/Workspace/Huawei/ptoas-pr786-vf-fusion/tilelang-dsl/python/tilelang_dsl/daemon_core.py", line 120, in instantiate
    mlir_text = await self._do_instantiate(
                ^^^^^^^^^^^^^^^^^^^^^^^^^^^
        target, op, operand_specs, context_attrs
        ^^^^^^^^^^^^^^^^^^^^^^^^^^^^^^^^^^^^^^^^
    )
    ^
  File "/Users/melikanorouzbeygi/Workspace/Huawei/ptoas-pr786-vf-fusion/tilelang-dsl/python/tilelang_dsl/daemon_core.py", line 183, in _do_instantiate
    raise LookupError(
    ...<2 lines>...
    )
LookupError: No kernel found for target='a5', op='pto.texp', operand_types=(f32, f32)
Error: Daemon RPC failed: instantiate failed: No kernel found for target='a5', op='pto.texp', operand_types=(f32, f32)
ExpandTileOp: daemon helper failed (rc=1): 
ExpandTileOp: daemon RPC failed, falling back to subprocess mode
2026-06-10 10:14:06,925 - tilelang_dsl.daemon_server - ERROR - Error processing instantiate: No kernel found for target='a5', op='pto.texp', operand_types=(f32, f32)
Traceback (most recent call last):
  File "/Users/melikanorouzbeygi/Workspace/Huawei/ptoas-pr786-vf-fusion/tilelang-dsl/python/tilelang_dsl/daemon_server.py", line 162, in _process_request
    result = await self._rpc_instantiate(params)
             ^^^^^^^^^^^^^^^^^^^^^^^^^^^^^^^^^^^
  File "/Users/melikanorouzbeygi/Workspace/Huawei/ptoas-pr786-vf-fusion/tilelang-dsl/python/tilelang_dsl/daemon_server.py", line 202, in _rpc_instantiate
    mlir_text = await self.cache.instantiate(
                ^^^^^^^^^^^^^^^^^^^^^^^^^^^^^
    ...<4 lines>...
    )
    ^
  File "/Users/melikanorouzbeygi/Workspace/Huawei/ptoas-pr786-vf-fusion/tilelang-dsl/python/tilelang_dsl/daemon_core.py", line 120, in instantiate
    mlir_text = await self._do_instantiate(
                ^^^^^^^^^^^^^^^^^^^^^^^^^^^
        target, op, operand_specs, context_attrs
        ^^^^^^^^^^^^^^^^^^^^^^^^^^^^^^^^^^^^^^^^
    )
    ^
  File "/Users/melikanorouzbeygi/Workspace/Huawei/ptoas-pr786-vf-fusion/tilelang-dsl/python/tilelang_dsl/daemon_core.py", line 183, in _do_instantiate
    raise LookupError(
    ...<2 lines>...
    )
LookupError: No kernel found for target='a5', op='pto.texp', operand_types=(f32, f32)
Error: Daemon RPC failed: instantiate failed: No kernel found for target='a5', op='pto.texp', operand_types=(f32, f32)
ExpandTileOp: daemon helper failed (rc=1): 
ExpandTileOp: daemon RPC failed, falling back to subprocess mode
ExpandTileOp: reuse existing function @__pto_tilelang_a5_texp_tile_f32_32_32_v32_v32_bl0_sl0_fr512_pd0_tile_f32_32_32_v32_v32_bl0_sl0_fr512_pd0_ctx_precisionType_default
2026-06-10 10:14:07,255 - asyncio - ERROR - Future exception was never retrieved
future: <Future finished exception=LookupError("No kernel found for target='a5', op='pto.texp', operand_types=(f32, f32)")>
Traceback (most recent call last):
  File "/Users/melikanorouzbeygi/Workspace/Huawei/ptoas-pr786-vf-fusion/tilelang-dsl/python/tilelang_dsl/daemon_server.py", line 162, in _process_request
    result = await self._rpc_instantiate(params)
             ^^^^^^^^^^^^^^^^^^^^^^^^^^^^^^^^^^^
  File "/Users/melikanorouzbeygi/Workspace/Huawei/ptoas-pr786-vf-fusion/tilelang-dsl/python/tilelang_dsl/daemon_server.py", line 202, in _rpc_instantiate
    mlir_text = await self.cache.instantiate(
                ^^^^^^^^^^^^^^^^^^^^^^^^^^^^^
    ...<4 lines>...
    )
    ^
  File "/Users/melikanorouzbeygi/Workspace/Huawei/ptoas-pr786-vf-fusion/tilelang-dsl/python/tilelang_dsl/daemon_core.py", line 120, in instantiate
    mlir_text = await self._do_instantiate(
                ^^^^^^^^^^^^^^^^^^^^^^^^^^^
        target, op, operand_specs, context_attrs
        ^^^^^^^^^^^^^^^^^^^^^^^^^^^^^^^^^^^^^^^^
    )
    ^
  File "/Users/melikanorouzbeygi/Workspace/Huawei/ptoas-pr786-vf-fusion/tilelang-dsl/python/tilelang_dsl/daemon_core.py", line 183, in _do_instantiate
    raise LookupError(
    ...<2 lines>...
    )
LookupError: No kernel found for target='a5', op='pto.texp', operand_types=(f32, f32)
2026-06-10 10:14:07,255 - asyncio - ERROR - Future exception was never retrieved
future: <Future finished exception=LookupError("No kernel found for target='a5', op='pto.texp', operand_types=(f32, f32)")>
Traceback (most recent call last):
  File "/Users/melikanorouzbeygi/Workspace/Huawei/ptoas-pr786-vf-fusion/tilelang-dsl/python/tilelang_dsl/daemon_server.py", line 162, in _process_request
    result = await self._rpc_instantiate(params)
             ^^^^^^^^^^^^^^^^^^^^^^^^^^^^^^^^^^^
  File "/Users/melikanorouzbeygi/Workspace/Huawei/ptoas-pr786-vf-fusion/tilelang-dsl/python/tilelang_dsl/daemon_server.py", line 202, in _rpc_instantiate
    mlir_text = await self.cache.instantiate(
                ^^^^^^^^^^^^^^^^^^^^^^^^^^^^^
    ...<4 lines>...
    )
    ^
  File "/Users/melikanorouzbeygi/Workspace/Huawei/ptoas-pr786-vf-fusion/tilelang-dsl/python/tilelang_dsl/daemon_core.py", line 120, in instantiate
    mlir_text = await self._do_instantiate(
                ^^^^^^^^^^^^^^^^^^^^^^^^^^^
        target, op, operand_specs, context_attrs
        ^^^^^^^^^^^^^^^^^^^^^^^^^^^^^^^^^^^^^^^^
    )
    ^
  File "/Users/melikanorouzbeygi/Workspace/Huawei/ptoas-pr786-vf-fusion/tilelang-dsl/python/tilelang_dsl/daemon_core.py", line 183, in _do_instantiate
    raise LookupError(
    ...<2 lines>...
    )
LookupError: No kernel found for target='a5', op='pto.texp', operand_types=(f32, f32)
// -----// IR Dump Before PTOLowLevelLoopFusion (pto-low-level-loop-fusion) //----- //
module attributes {pto.backend = "vpto", pto.kernel_kind = #pto.kernel_kind<vector>, pto.target_arch = "a5"} {
  func.func @pointwise_diamond_fusion() {
    %c20480_i64 = arith.constant 20480 : i64
    %c16384_i64 = arith.constant 16384 : i64
    %c12288_i64 = arith.constant 12288 : i64
    %c8192_i64 = arith.constant 8192 : i64
    %c4096_i64 = arith.constant 4096 : i64
    %c0_i64 = arith.constant 0 : i64
    %c24576_i64 = arith.constant 24576 : i64
    %c28672_i64 = arith.constant 28672 : i64
    %c32768_i64 = arith.constant 32768 : i64
    %c36864_i64 = arith.constant 36864 : i64
    %c40960_i64 = arith.constant 40960 : i64
    %c45056_i64 = arith.constant 45056 : i64
    %0 = pto.alloc_tile addr = %c45056_i64 : !pto.tile_buf<vec, 32x32xf32>
    %1 = pto.alloc_tile addr = %c40960_i64 : !pto.tile_buf<vec, 32x32xf32>
    %2 = pto.alloc_tile addr = %c36864_i64 : !pto.tile_buf<vec, 32x32xf32>
    %3 = pto.alloc_tile addr = %c32768_i64 : !pto.tile_buf<vec, 32x32xf32>
    %4 = pto.alloc_tile addr = %c28672_i64 : !pto.tile_buf<vec, 32x32xf32>
    %5 = pto.alloc_tile addr = %c24576_i64 : !pto.tile_buf<vec, 32x32xf32>
    pto.fusion_region {
      %6 = pto.alloc_tile addr = %c0_i64 : !pto.tile_buf<vec, 32x32xf32>
      %7 = pto.alloc_tile addr = %c4096_i64 : !pto.tile_buf<vec, 32x32xf32>
      %8 = pto.alloc_tile addr = %c8192_i64 : !pto.tile_buf<vec, 32x32xf32>
      %9 = pto.alloc_tile addr = %c12288_i64 : !pto.tile_buf<vec, 32x32xf32>
      %10 = pto.alloc_tile addr = %c16384_i64 : !pto.tile_buf<vec, 32x32xf32>
      %11 = pto.alloc_tile addr = %c20480_i64 : !pto.tile_buf<vec, 32x32xf32>
      %12 = pto.alloc_tile addr = %c24576_i64 : !pto.tile_buf<vec, 32x32xf32>
      %c0 = arith.constant 0 : index
      %c1 = arith.constant 1 : index
      %c64 = arith.constant 64 : index
      %c32 = arith.constant 32 : index
      %13 = pto.tile_buf_addr %0 : !pto.tile_buf<vec, 32x32xf32> -> memref<32x32xf32, #pto.address_space<vec>>
      %14 = pto.tile_buf_addr %1 : !pto.tile_buf<vec, 32x32xf32> -> memref<32x32xf32, #pto.address_space<vec>>
      %15 = pto.tile_buf_addr %6 : !pto.tile_buf<vec, 32x32xf32> -> memref<32x32xf32, #pto.address_space<vec>>
      %c32_0 = arith.constant 32 : index
      %c32_1 = arith.constant 32 : index
      scf.for %arg0 = %c0 to %c32_0 step %c1 {
        %31 = arith.index_cast %c32_1 : index to i32
        %32 = scf.for %arg1 = %c0 to %c32_1 step %c64 iter_args(%arg2 = %31) -> (i32) {
          %mask, %scalar_out = pto.plt_b32 %arg2 : i32 -> !pto.mask<b32>, i32
          %33 = arith.subi %c32, %arg1 : index
          %subview = memref.subview %13[%arg0, %arg1] [%c1, %33] [%c1, %c1] : memref<32x32xf32, #pto.address_space<vec>> to memref<?x?xf32, strided<[?, ?], offset: ?>, #pto.address_space<vec>>
          %result = pto.vlds %subview[%c0] : memref<?x?xf32, strided<[?, ?], offset: ?>, #pto.address_space<vec>> -> !pto.vreg<64xf32>
          %34 = arith.subi %c32, %arg1 : index
          %subview_44 = memref.subview %14[%arg0, %arg1] [%c1, %34] [%c1, %c1] : memref<32x32xf32, #pto.address_space<vec>> to memref<?x?xf32, strided<[?, ?], offset: ?>, #pto.address_space<vec>>
          %result_45 = pto.vlds %subview_44[%c0] : memref<?x?xf32, strided<[?, ?], offset: ?>, #pto.address_space<vec>> -> !pto.vreg<64xf32>
          %35 = pto.vmax %result, %result_45, %mask : !pto.vreg<64xf32>, !pto.vreg<64xf32>, !pto.mask<b32> -> !pto.vreg<64xf32>
          %36 = arith.subi %c32, %arg1 : index
          %subview_46 = memref.subview %15[%arg0, %arg1] [%c1, %36] [%c1, %c1] : memref<32x32xf32, #pto.address_space<vec>> to memref<?x?xf32, strided<[?, ?], offset: ?>, #pto.address_space<vec>>
          pto.vsts %35, %subview_46[%c0], %mask : !pto.vreg<64xf32>, memref<?x?xf32, strided<[?, ?], offset: ?>, #pto.address_space<vec>>, !pto.mask<b32>
          scf.yield %scalar_out : i32
        }
      }
      %c0_2 = arith.constant 0 : index
      %c1_3 = arith.constant 1 : index
      %c64_4 = arith.constant 64 : index
      %c32_5 = arith.constant 32 : index
      %16 = pto.tile_buf_addr %6 : !pto.tile_buf<vec, 32x32xf32> -> memref<32x32xf32, #pto.address_space<vec>>
      %17 = pto.tile_buf_addr %2 : !pto.tile_buf<vec, 32x32xf32> -> memref<32x32xf32, #pto.address_space<vec>>
      %18 = pto.tile_buf_addr %7 : !pto.tile_buf<vec, 32x32xf32> -> memref<32x32xf32, #pto.address_space<vec>>
      %c32_6 = arith.constant 32 : index
      %c32_7 = arith.constant 32 : index
      scf.for %arg0 = %c0_2 to %c32_6 step %c1_3 {
        %31 = arith.index_cast %c32_7 : index to i32
        %32 = scf.for %arg1 = %c0_2 to %c32_7 step %c64_4 iter_args(%arg2 = %31) -> (i32) {
          %mask, %scalar_out = pto.plt_b32 %arg2 : i32 -> !pto.mask<b32>, i32
          %33 = arith.subi %c32_5, %arg1 : index
          %subview = memref.subview %16[%arg0, %arg1] [%c1_3, %33] [%c1_3, %c1_3] : memref<32x32xf32, #pto.address_space<vec>> to memref<?x?xf32, strided<[?, ?], offset: ?>, #pto.address_space<vec>>
          %result = pto.vlds %subview[%c0_2] : memref<?x?xf32, strided<[?, ?], offset: ?>, #pto.address_space<vec>> -> !pto.vreg<64xf32>
          %34 = arith.subi %c32_5, %arg1 : index
          %subview_44 = memref.subview %17[%arg0, %arg1] [%c1_3, %34] [%c1_3, %c1_3] : memref<32x32xf32, #pto.address_space<vec>> to memref<?x?xf32, strided<[?, ?], offset: ?>, #pto.address_space<vec>>
          %result_45 = pto.vlds %subview_44[%c0_2] : memref<?x?xf32, strided<[?, ?], offset: ?>, #pto.address_space<vec>> -> !pto.vreg<64xf32>
          %35 = pto.vsub %result, %result_45, %mask : !pto.vreg<64xf32>, !pto.vreg<64xf32>, !pto.mask<b32> -> !pto.vreg<64xf32>
          %36 = arith.subi %c32_5, %arg1 : index
          %subview_46 = memref.subview %18[%arg0, %arg1] [%c1_3, %36] [%c1_3, %c1_3] : memref<32x32xf32, #pto.address_space<vec>> to memref<?x?xf32, strided<[?, ?], offset: ?>, #pto.address_space<vec>>
          pto.vsts %35, %subview_46[%c0_2], %mask : !pto.vreg<64xf32>, memref<?x?xf32, strided<[?, ?], offset: ?>, #pto.address_space<vec>>, !pto.mask<b32>
          scf.yield %scalar_out : i32
        }
      }
      %c0_8 = arith.constant 0 : index
      %c1_9 = arith.constant 1 : index
      %c64_10 = arith.constant 64 : index
      %c32_11 = arith.constant 32 : index
      %19 = pto.tile_buf_addr %6 : !pto.tile_buf<vec, 32x32xf32> -> memref<32x32xf32, #pto.address_space<vec>>
      %20 = pto.tile_buf_addr %3 : !pto.tile_buf<vec, 32x32xf32> -> memref<32x32xf32, #pto.address_space<vec>>
      %21 = pto.tile_buf_addr %8 : !pto.tile_buf<vec, 32x32xf32> -> memref<32x32xf32, #pto.address_space<vec>>
      %c32_12 = arith.constant 32 : index
      %c32_13 = arith.constant 32 : index
      scf.for %arg0 = %c0_8 to %c32_12 step %c1_9 {
        %31 = arith.index_cast %c32_13 : index to i32
        %32 = scf.for %arg1 = %c0_8 to %c32_13 step %c64_10 iter_args(%arg2 = %31) -> (i32) {
          %mask, %scalar_out = pto.plt_b32 %arg2 : i32 -> !pto.mask<b32>, i32
          %33 = arith.subi %c32_11, %arg1 : index
          %subview = memref.subview %19[%arg0, %arg1] [%c1_9, %33] [%c1_9, %c1_9] : memref<32x32xf32, #pto.address_space<vec>> to memref<?x?xf32, strided<[?, ?], offset: ?>, #pto.address_space<vec>>
          %result = pto.vlds %subview[%c0_8] : memref<?x?xf32, strided<[?, ?], offset: ?>, #pto.address_space<vec>> -> !pto.vreg<64xf32>
          %34 = arith.subi %c32_11, %arg1 : index
          %subview_44 = memref.subview %20[%arg0, %arg1] [%c1_9, %34] [%c1_9, %c1_9] : memref<32x32xf32, #pto.address_space<vec>> to memref<?x?xf32, strided<[?, ?], offset: ?>, #pto.address_space<vec>>
          %result_45 = pto.vlds %subview_44[%c0_8] : memref<?x?xf32, strided<[?, ?], offset: ?>, #pto.address_space<vec>> -> !pto.vreg<64xf32>
          %35 = pto.vsub %result, %result_45, %mask : !pto.vreg<64xf32>, !pto.vreg<64xf32>, !pto.mask<b32> -> !pto.vreg<64xf32>
          %36 = arith.subi %c32_11, %arg1 : index
          %subview_46 = memref.subview %21[%arg0, %arg1] [%c1_9, %36] [%c1_9, %c1_9] : memref<32x32xf32, #pto.address_space<vec>> to memref<?x?xf32, strided<[?, ?], offset: ?>, #pto.address_space<vec>>
          pto.vsts %35, %subview_46[%c0_8], %mask : !pto.vreg<64xf32>, memref<?x?xf32, strided<[?, ?], offset: ?>, #pto.address_space<vec>>, !pto.mask<b32>
          scf.yield %scalar_out : i32
        }
      }
      %c0_14 = arith.constant 0 : index
      %c1_15 = arith.constant 1 : index
      %c64_16 = arith.constant 64 : index
      %c32_17 = arith.constant 32 : index
      %c32_18 = arith.constant 32 : index
      %c32_19 = arith.constant 32 : index
      scf.for %arg0 = %c0_14 to %c32_18 step %c1_15 {
        %31 = arith.index_cast %c32_19 : index to i32
        %32 = scf.for %arg1 = %c0_14 to %c32_19 step %c64_16 iter_args(%arg2 = %31) -> (i32) {
          %mask, %scalar_out = pto.plt_b32 %arg2 : i32 -> !pto.mask<b32>, i32
          %33 = pto.tile_buf_addr %7 : !pto.tile_buf<vec, 32x32xf32> -> memref<32x32xf32, #pto.address_space<vec>>
          %34 = arith.subi %c32_17, %arg1 : index
          %subview = memref.subview %33[%arg0, %arg1] [%c1_15, %34] [%c1_15, %c1_15] : memref<32x32xf32, #pto.address_space<vec>> to memref<?x?xf32, strided<[?, ?], offset: ?>, #pto.address_space<vec>>
          %result = pto.vlds %subview[%c0_14] : memref<?x?xf32, strided<[?, ?], offset: ?>, #pto.address_space<vec>> -> !pto.vreg<64xf32>
          %35 = pto.vexp %result, %mask : !pto.vreg<64xf32>, !pto.mask<b32> -> !pto.vreg<64xf32>
          %36 = pto.tile_buf_addr %9 : !pto.tile_buf<vec, 32x32xf32> -> memref<32x32xf32, #pto.address_space<vec>>
          %37 = arith.subi %c32_17, %arg1 : index
          %subview_44 = memref.subview %36[%arg0, %arg1] [%c1_15, %37] [%c1_15, %c1_15] : memref<32x32xf32, #pto.address_space<vec>> to memref<?x?xf32, strided<[?, ?], offset: ?>, #pto.address_space<vec>>
          pto.vsts %35, %subview_44[%c0_14], %mask : !pto.vreg<64xf32>, memref<?x?xf32, strided<[?, ?], offset: ?>, #pto.address_space<vec>>, !pto.mask<b32>
          scf.yield %scalar_out : i32
        }
      }
      %c0_20 = arith.constant 0 : index
      %c1_21 = arith.constant 1 : index
      %c64_22 = arith.constant 64 : index
      %c32_23 = arith.constant 32 : index
      %c32_24 = arith.constant 32 : index
      %c32_25 = arith.constant 32 : index
      scf.for %arg0 = %c0_20 to %c32_24 step %c1_21 {
        %31 = arith.index_cast %c32_25 : index to i32
        %32 = scf.for %arg1 = %c0_20 to %c32_25 step %c64_22 iter_args(%arg2 = %31) -> (i32) {
          %mask, %scalar_out = pto.plt_b32 %arg2 : i32 -> !pto.mask<b32>, i32
          %33 = pto.tile_buf_addr %8 : !pto.tile_buf<vec, 32x32xf32> -> memref<32x32xf32, #pto.address_space<vec>>
          %34 = arith.subi %c32_23, %arg1 : index
          %subview = memref.subview %33[%arg0, %arg1] [%c1_21, %34] [%c1_21, %c1_21] : memref<32x32xf32, #pto.address_space<vec>> to memref<?x?xf32, strided<[?, ?], offset: ?>, #pto.address_space<vec>>
          %result = pto.vlds %subview[%c0_20] : memref<?x?xf32, strided<[?, ?], offset: ?>, #pto.address_space<vec>> -> !pto.vreg<64xf32>
          %35 = pto.vexp %result, %mask : !pto.vreg<64xf32>, !pto.mask<b32> -> !pto.vreg<64xf32>
          %36 = pto.tile_buf_addr %10 : !pto.tile_buf<vec, 32x32xf32> -> memref<32x32xf32, #pto.address_space<vec>>
          %37 = arith.subi %c32_23, %arg1 : index
          %subview_44 = memref.subview %36[%arg0, %arg1] [%c1_21, %37] [%c1_21, %c1_21] : memref<32x32xf32, #pto.address_space<vec>> to memref<?x?xf32, strided<[?, ?], offset: ?>, #pto.address_space<vec>>
          pto.vsts %35, %subview_44[%c0_20], %mask : !pto.vreg<64xf32>, memref<?x?xf32, strided<[?, ?], offset: ?>, #pto.address_space<vec>>, !pto.mask<b32>
          scf.yield %scalar_out : i32
        }
      }
      %c0_26 = arith.constant 0 : index
      %c1_27 = arith.constant 1 : index
      %c64_28 = arith.constant 64 : index
      %c32_29 = arith.constant 32 : index
      %22 = pto.tile_buf_addr %9 : !pto.tile_buf<vec, 32x32xf32> -> memref<32x32xf32, #pto.address_space<vec>>
      %23 = pto.tile_buf_addr %4 : !pto.tile_buf<vec, 32x32xf32> -> memref<32x32xf32, #pto.address_space<vec>>
      %24 = pto.tile_buf_addr %11 : !pto.tile_buf<vec, 32x32xf32> -> memref<32x32xf32, #pto.address_space<vec>>
      %c32_30 = arith.constant 32 : index
      %c32_31 = arith.constant 32 : index
      scf.for %arg0 = %c0_26 to %c32_30 step %c1_27 {
        %31 = arith.index_cast %c32_31 : index to i32
        %32 = scf.for %arg1 = %c0_26 to %c32_31 step %c64_28 iter_args(%arg2 = %31) -> (i32) {
          %mask, %scalar_out = pto.plt_b32 %arg2 : i32 -> !pto.mask<b32>, i32
          %33 = arith.subi %c32_29, %arg1 : index
          %subview = memref.subview %22[%arg0, %arg1] [%c1_27, %33] [%c1_27, %c1_27] : memref<32x32xf32, #pto.address_space<vec>> to memref<?x?xf32, strided<[?, ?], offset: ?>, #pto.address_space<vec>>
          %result = pto.vlds %subview[%c0_26] : memref<?x?xf32, strided<[?, ?], offset: ?>, #pto.address_space<vec>> -> !pto.vreg<64xf32>
          %34 = arith.subi %c32_29, %arg1 : index
          %subview_44 = memref.subview %23[%arg0, %arg1] [%c1_27, %34] [%c1_27, %c1_27] : memref<32x32xf32, #pto.address_space<vec>> to memref<?x?xf32, strided<[?, ?], offset: ?>, #pto.address_space<vec>>
          %result_45 = pto.vlds %subview_44[%c0_26] : memref<?x?xf32, strided<[?, ?], offset: ?>, #pto.address_space<vec>> -> !pto.vreg<64xf32>
          %35 = pto.vmul %result, %result_45, %mask : !pto.vreg<64xf32>, !pto.vreg<64xf32>, !pto.mask<b32> -> !pto.vreg<64xf32>
          %36 = arith.subi %c32_29, %arg1 : index
          %subview_46 = memref.subview %24[%arg0, %arg1] [%c1_27, %36] [%c1_27, %c1_27] : memref<32x32xf32, #pto.address_space<vec>> to memref<?x?xf32, strided<[?, ?], offset: ?>, #pto.address_space<vec>>
          pto.vsts %35, %subview_46[%c0_26], %mask : !pto.vreg<64xf32>, memref<?x?xf32, strided<[?, ?], offset: ?>, #pto.address_space<vec>>, !pto.mask<b32>
          scf.yield %scalar_out : i32
        }
      }
      %c0_32 = arith.constant 0 : index
      %c1_33 = arith.constant 1 : index
      %c64_34 = arith.constant 64 : index
      %c32_35 = arith.constant 32 : index
      %25 = pto.tile_buf_addr %10 : !pto.tile_buf<vec, 32x32xf32> -> memref<32x32xf32, #pto.address_space<vec>>
      %26 = pto.tile_buf_addr %5 : !pto.tile_buf<vec, 32x32xf32> -> memref<32x32xf32, #pto.address_space<vec>>
      %27 = pto.tile_buf_addr %8 : !pto.tile_buf<vec, 32x32xf32> -> memref<32x32xf32, #pto.address_space<vec>>
      %c32_36 = arith.constant 32 : index
      %c32_37 = arith.constant 32 : index
      scf.for %arg0 = %c0_32 to %c32_36 step %c1_33 {
        %31 = arith.index_cast %c32_37 : index to i32
        %32 = scf.for %arg1 = %c0_32 to %c32_37 step %c64_34 iter_args(%arg2 = %31) -> (i32) {
          %mask, %scalar_out = pto.plt_b32 %arg2 : i32 -> !pto.mask<b32>, i32
          %33 = arith.subi %c32_35, %arg1 : index
          %subview = memref.subview %25[%arg0, %arg1] [%c1_33, %33] [%c1_33, %c1_33] : memref<32x32xf32, #pto.address_space<vec>> to memref<?x?xf32, strided<[?, ?], offset: ?>, #pto.address_space<vec>>
          %result = pto.vlds %subview[%c0_32] : memref<?x?xf32, strided<[?, ?], offset: ?>, #pto.address_space<vec>> -> !pto.vreg<64xf32>
          %34 = arith.subi %c32_35, %arg1 : index
          %subview_44 = memref.subview %26[%arg0, %arg1] [%c1_33, %34] [%c1_33, %c1_33] : memref<32x32xf32, #pto.address_space<vec>> to memref<?x?xf32, strided<[?, ?], offset: ?>, #pto.address_space<vec>>
          %result_45 = pto.vlds %subview_44[%c0_32] : memref<?x?xf32, strided<[?, ?], offset: ?>, #pto.address_space<vec>> -> !pto.vreg<64xf32>
          %35 = pto.vmul %result, %result_45, %mask : !pto.vreg<64xf32>, !pto.vreg<64xf32>, !pto.mask<b32> -> !pto.vreg<64xf32>
          %36 = arith.subi %c32_35, %arg1 : index
          %subview_46 = memref.subview %27[%arg0, %arg1] [%c1_33, %36] [%c1_33, %c1_33] : memref<32x32xf32, #pto.address_space<vec>> to memref<?x?xf32, strided<[?, ?], offset: ?>, #pto.address_space<vec>>
          pto.vsts %35, %subview_46[%c0_32], %mask : !pto.vreg<64xf32>, memref<?x?xf32, strided<[?, ?], offset: ?>, #pto.address_space<vec>>, !pto.mask<b32>
          scf.yield %scalar_out : i32
        }
      }
      %c0_38 = arith.constant 0 : index
      %c1_39 = arith.constant 1 : index
      %c64_40 = arith.constant 64 : index
      %c32_41 = arith.constant 32 : index
      %28 = pto.tile_buf_addr %11 : !pto.tile_buf<vec, 32x32xf32> -> memref<32x32xf32, #pto.address_space<vec>>
      %29 = pto.tile_buf_addr %8 : !pto.tile_buf<vec, 32x32xf32> -> memref<32x32xf32, #pto.address_space<vec>>
      %30 = pto.tile_buf_addr %12 : !pto.tile_buf<vec, 32x32xf32> -> memref<32x32xf32, #pto.address_space<vec>>
      %c32_42 = arith.constant 32 : index
      %c32_43 = arith.constant 32 : index
      scf.for %arg0 = %c0_38 to %c32_42 step %c1_39 {
        %31 = arith.index_cast %c32_43 : index to i32
        %32 = scf.for %arg1 = %c0_38 to %c32_43 step %c64_40 iter_args(%arg2 = %31) -> (i32) {
          %mask, %scalar_out = pto.plt_b32 %arg2 : i32 -> !pto.mask<b32>, i32
          %33 = arith.subi %c32_41, %arg1 : index
          %subview = memref.subview %28[%arg0, %arg1] [%c1_39, %33] [%c1_39, %c1_39] : memref<32x32xf32, #pto.address_space<vec>> to memref<?x?xf32, strided<[?, ?], offset: ?>, #pto.address_space<vec>>
          %result = pto.vlds %subview[%c0_38] : memref<?x?xf32, strided<[?, ?], offset: ?>, #pto.address_space<vec>> -> !pto.vreg<64xf32>
          %34 = arith.subi %c32_41, %arg1 : index
          %subview_44 = memref.subview %29[%arg0, %arg1] [%c1_39, %34] [%c1_39, %c1_39] : memref<32x32xf32, #pto.address_space<vec>> to memref<?x?xf32, strided<[?, ?], offset: ?>, #pto.address_space<vec>>
          %result_45 = pto.vlds %subview_44[%c0_38] : memref<?x?xf32, strided<[?, ?], offset: ?>, #pto.address_space<vec>> -> !pto.vreg<64xf32>
          %35 = pto.vadd %result, %result_45, %mask : !pto.vreg<64xf32>, !pto.vreg<64xf32>, !pto.mask<b32> -> !pto.vreg<64xf32>
          %36 = arith.subi %c32_41, %arg1 : index
          %subview_46 = memref.subview %30[%arg0, %arg1] [%c1_39, %36] [%c1_39, %c1_39] : memref<32x32xf32, #pto.address_space<vec>> to memref<?x?xf32, strided<[?, ?], offset: ?>, #pto.address_space<vec>>
          pto.vsts %35, %subview_46[%c0_38], %mask : !pto.vreg<64xf32>, memref<?x?xf32, strided<[?, ?], offset: ?>, #pto.address_space<vec>>, !pto.mask<b32>
          scf.yield %scalar_out : i32
        }
      }
      pto.yield() : () -> ()
    } {pto.fusion.group_id = 0 : i64} : 
    return
  }
}

// -----// IR Dump After PTOLowLevelLoopFusion (pto-low-level-loop-fusion) //----- //
module attributes {pto.backend = "vpto", pto.kernel_kind = #pto.kernel_kind<vector>, pto.target_arch = "a5"} {
  func.func @pointwise_diamond_fusion() {
    %c20480_i64 = arith.constant 20480 : i64
    %c16384_i64 = arith.constant 16384 : i64
    %c12288_i64 = arith.constant 12288 : i64
    %c8192_i64 = arith.constant 8192 : i64
    %c4096_i64 = arith.constant 4096 : i64
    %c0_i64 = arith.constant 0 : i64
    %c24576_i64 = arith.constant 24576 : i64
    %c28672_i64 = arith.constant 28672 : i64
    %c32768_i64 = arith.constant 32768 : i64
    %c36864_i64 = arith.constant 36864 : i64
    %c40960_i64 = arith.constant 40960 : i64
    %c45056_i64 = arith.constant 45056 : i64
    %0 = pto.alloc_tile addr = %c45056_i64 : !pto.tile_buf<vec, 32x32xf32>
    %1 = pto.alloc_tile addr = %c40960_i64 : !pto.tile_buf<vec, 32x32xf32>
    %2 = pto.alloc_tile addr = %c36864_i64 : !pto.tile_buf<vec, 32x32xf32>
    %3 = pto.alloc_tile addr = %c32768_i64 : !pto.tile_buf<vec, 32x32xf32>
    %4 = pto.alloc_tile addr = %c28672_i64 : !pto.tile_buf<vec, 32x32xf32>
    %5 = pto.alloc_tile addr = %c24576_i64 : !pto.tile_buf<vec, 32x32xf32>
    pto.fusion_region {
      %6 = pto.alloc_tile addr = %c0_i64 : !pto.tile_buf<vec, 32x32xf32>
      %7 = pto.alloc_tile addr = %c4096_i64 : !pto.tile_buf<vec, 32x32xf32>
      %8 = pto.alloc_tile addr = %c8192_i64 : !pto.tile_buf<vec, 32x32xf32>
      %9 = pto.alloc_tile addr = %c12288_i64 : !pto.tile_buf<vec, 32x32xf32>
      %10 = pto.alloc_tile addr = %c16384_i64 : !pto.tile_buf<vec, 32x32xf32>
      %11 = pto.alloc_tile addr = %c20480_i64 : !pto.tile_buf<vec, 32x32xf32>
      %12 = pto.alloc_tile addr = %c24576_i64 : !pto.tile_buf<vec, 32x32xf32>
      %c0 = arith.constant 0 : index
      %c1 = arith.constant 1 : index
      %c64 = arith.constant 64 : index
      %c32 = arith.constant 32 : index
      %13 = pto.tile_buf_addr %0 : !pto.tile_buf<vec, 32x32xf32> -> memref<32x32xf32, #pto.address_space<vec>>
      %14 = pto.tile_buf_addr %1 : !pto.tile_buf<vec, 32x32xf32> -> memref<32x32xf32, #pto.address_space<vec>>
      %15 = pto.tile_buf_addr %6 : !pto.tile_buf<vec, 32x32xf32> -> memref<32x32xf32, #pto.address_space<vec>>
      %c32_0 = arith.constant 32 : index
      %c32_1 = arith.constant 32 : index
      %c0_2 = arith.constant 0 : index
      %c1_3 = arith.constant 1 : index
      %c64_4 = arith.constant 64 : index
      %c32_5 = arith.constant 32 : index
      %16 = pto.tile_buf_addr %6 : !pto.tile_buf<vec, 32x32xf32> -> memref<32x32xf32, #pto.address_space<vec>>
      %17 = pto.tile_buf_addr %2 : !pto.tile_buf<vec, 32x32xf32> -> memref<32x32xf32, #pto.address_space<vec>>
      %18 = pto.tile_buf_addr %7 : !pto.tile_buf<vec, 32x32xf32> -> memref<32x32xf32, #pto.address_space<vec>>
      %c32_6 = arith.constant 32 : index
      %c32_7 = arith.constant 32 : index
      %c0_8 = arith.constant 0 : index
      %c1_9 = arith.constant 1 : index
      %c64_10 = arith.constant 64 : index
      %c32_11 = arith.constant 32 : index
      %19 = pto.tile_buf_addr %6 : !pto.tile_buf<vec, 32x32xf32> -> memref<32x32xf32, #pto.address_space<vec>>
      %20 = pto.tile_buf_addr %3 : !pto.tile_buf<vec, 32x32xf32> -> memref<32x32xf32, #pto.address_space<vec>>
      %21 = pto.tile_buf_addr %8 : !pto.tile_buf<vec, 32x32xf32> -> memref<32x32xf32, #pto.address_space<vec>>
      %c32_12 = arith.constant 32 : index
      %c32_13 = arith.constant 32 : index
      %c0_14 = arith.constant 0 : index
      %c1_15 = arith.constant 1 : index
      %c64_16 = arith.constant 64 : index
      %c32_17 = arith.constant 32 : index
      %c32_18 = arith.constant 32 : index
      %c32_19 = arith.constant 32 : index
      %c0_20 = arith.constant 0 : index
      %c1_21 = arith.constant 1 : index
      %c64_22 = arith.constant 64 : index
      %c32_23 = arith.constant 32 : index
      %c32_24 = arith.constant 32 : index
      %c32_25 = arith.constant 32 : index
      %c0_26 = arith.constant 0 : index
      %c1_27 = arith.constant 1 : index
      %c64_28 = arith.constant 64 : index
      %c32_29 = arith.constant 32 : index
      %22 = pto.tile_buf_addr %9 : !pto.tile_buf<vec, 32x32xf32> -> memref<32x32xf32, #pto.address_space<vec>>
      %23 = pto.tile_buf_addr %4 : !pto.tile_buf<vec, 32x32xf32> -> memref<32x32xf32, #pto.address_space<vec>>
      %24 = pto.tile_buf_addr %11 : !pto.tile_buf<vec, 32x32xf32> -> memref<32x32xf32, #pto.address_space<vec>>
      %c32_30 = arith.constant 32 : index
      %c32_31 = arith.constant 32 : index
      %c0_32 = arith.constant 0 : index
      %c1_33 = arith.constant 1 : index
      %c64_34 = arith.constant 64 : index
      %c32_35 = arith.constant 32 : index
      %25 = pto.tile_buf_addr %10 : !pto.tile_buf<vec, 32x32xf32> -> memref<32x32xf32, #pto.address_space<vec>>
      %26 = pto.tile_buf_addr %5 : !pto.tile_buf<vec, 32x32xf32> -> memref<32x32xf32, #pto.address_space<vec>>
      %27 = pto.tile_buf_addr %8 : !pto.tile_buf<vec, 32x32xf32> -> memref<32x32xf32, #pto.address_space<vec>>
      %c32_36 = arith.constant 32 : index
      %c32_37 = arith.constant 32 : index
      %c0_38 = arith.constant 0 : index
      %c1_39 = arith.constant 1 : index
      %c64_40 = arith.constant 64 : index
      %c32_41 = arith.constant 32 : index
      %28 = pto.tile_buf_addr %11 : !pto.tile_buf<vec, 32x32xf32> -> memref<32x32xf32, #pto.address_space<vec>>
      %29 = pto.tile_buf_addr %8 : !pto.tile_buf<vec, 32x32xf32> -> memref<32x32xf32, #pto.address_space<vec>>
      %30 = pto.tile_buf_addr %12 : !pto.tile_buf<vec, 32x32xf32> -> memref<32x32xf32, #pto.address_space<vec>>
      %c32_42 = arith.constant 32 : index
      %c32_43 = arith.constant 32 : index
      scf.for %arg0 = %c0 to %c32_0 step %c1 {
        %31 = arith.index_cast %c32_1 : index to i32
        %32 = arith.index_cast %c32_7 : index to i32
        %33 = arith.index_cast %c32_13 : index to i32
        %34 = arith.index_cast %c32_19 : index to i32
        %35 = arith.index_cast %c32_25 : index to i32
        %36 = arith.index_cast %c32_31 : index to i32
        %37 = arith.index_cast %c32_37 : index to i32
        %38 = arith.index_cast %c32_43 : index to i32
        %39:8 = scf.for %arg1 = %c0 to %c32_1 step %c64 iter_args(%arg2 = %31, %arg3 = %32, %arg4 = %33, %arg5 = %34, %arg6 = %35, %arg7 = %36, %arg8 = %37, %arg9 = %38) -> (i32, i32, i32, i32, i32, i32, i32, i32) {
          %mask, %scalar_out = pto.plt_b32 %arg2 : i32 -> !pto.mask<b32>, i32
          %40 = arith.subi %c32, %arg1 : index
          %subview = memref.subview %13[%arg0, %arg1] [%c1, %40] [%c1, %c1] : memref<32x32xf32, #pto.address_space<vec>> to memref<?x?xf32, strided<[?, ?], offset: ?>, #pto.address_space<vec>>
          %result = pto.vlds %subview[%c0] : memref<?x?xf32, strided<[?, ?], offset: ?>, #pto.address_space<vec>> -> !pto.vreg<64xf32>
          %41 = arith.subi %c32, %arg1 : index
          %subview_44 = memref.subview %14[%arg0, %arg1] [%c1, %41] [%c1, %c1] : memref<32x32xf32, #pto.address_space<vec>> to memref<?x?xf32, strided<[?, ?], offset: ?>, #pto.address_space<vec>>
          %result_45 = pto.vlds %subview_44[%c0] : memref<?x?xf32, strided<[?, ?], offset: ?>, #pto.address_space<vec>> -> !pto.vreg<64xf32>
          %42 = pto.vmax %result, %result_45, %mask : !pto.vreg<64xf32>, !pto.vreg<64xf32>, !pto.mask<b32> -> !pto.vreg<64xf32>
          %43 = arith.subi %c32, %arg1 : index
          %subview_46 = memref.subview %15[%arg0, %arg1] [%c1, %43] [%c1, %c1] : memref<32x32xf32, #pto.address_space<vec>> to memref<?x?xf32, strided<[?, ?], offset: ?>, #pto.address_space<vec>>
          pto.vsts %42, %subview_46[%c0], %mask : !pto.vreg<64xf32>, memref<?x?xf32, strided<[?, ?], offset: ?>, #pto.address_space<vec>>, !pto.mask<b32>
          %mask_47, %scalar_out_48 = pto.plt_b32 %arg3 : i32 -> !pto.mask<b32>, i32
          %44 = arith.subi %c32_5, %arg1 : index
          %subview_49 = memref.subview %16[%arg0, %arg1] [%c1_3, %44] [%c1_3, %c1_3] : memref<32x32xf32, #pto.address_space<vec>> to memref<?x?xf32, strided<[?, ?], offset: ?>, #pto.address_space<vec>>
          %result_50 = pto.vlds %subview_49[%c0_2] : memref<?x?xf32, strided<[?, ?], offset: ?>, #pto.address_space<vec>> -> !pto.vreg<64xf32>
          %45 = arith.subi %c32_5, %arg1 : index
          %subview_51 = memref.subview %17[%arg0, %arg1] [%c1_3, %45] [%c1_3, %c1_3] : memref<32x32xf32, #pto.address_space<vec>> to memref<?x?xf32, strided<[?, ?], offset: ?>, #pto.address_space<vec>>
          %result_52 = pto.vlds %subview_51[%c0_2] : memref<?x?xf32, strided<[?, ?], offset: ?>, #pto.address_space<vec>> -> !pto.vreg<64xf32>
          %46 = pto.vsub %result_50, %result_52, %mask_47 : !pto.vreg<64xf32>, !pto.vreg<64xf32>, !pto.mask<b32> -> !pto.vreg<64xf32>
          %47 = arith.subi %c32_5, %arg1 : index
          %subview_53 = memref.subview %18[%arg0, %arg1] [%c1_3, %47] [%c1_3, %c1_3] : memref<32x32xf32, #pto.address_space<vec>> to memref<?x?xf32, strided<[?, ?], offset: ?>, #pto.address_space<vec>>
          pto.vsts %46, %subview_53[%c0_2], %mask_47 : !pto.vreg<64xf32>, memref<?x?xf32, strided<[?, ?], offset: ?>, #pto.address_space<vec>>, !pto.mask<b32>
          %mask_54, %scalar_out_55 = pto.plt_b32 %arg4 : i32 -> !pto.mask<b32>, i32
          %48 = arith.subi %c32_11, %arg1 : index
          %subview_56 = memref.subview %19[%arg0, %arg1] [%c1_9, %48] [%c1_9, %c1_9] : memref<32x32xf32, #pto.address_space<vec>> to memref<?x?xf32, strided<[?, ?], offset: ?>, #pto.address_space<vec>>
          %result_57 = pto.vlds %subview_56[%c0_8] : memref<?x?xf32, strided<[?, ?], offset: ?>, #pto.address_space<vec>> -> !pto.vreg<64xf32>
          %49 = arith.subi %c32_11, %arg1 : index
          %subview_58 = memref.subview %20[%arg0, %arg1] [%c1_9, %49] [%c1_9, %c1_9] : memref<32x32xf32, #pto.address_space<vec>> to memref<?x?xf32, strided<[?, ?], offset: ?>, #pto.address_space<vec>>
          %result_59 = pto.vlds %subview_58[%c0_8] : memref<?x?xf32, strided<[?, ?], offset: ?>, #pto.address_space<vec>> -> !pto.vreg<64xf32>
          %50 = pto.vsub %result_57, %result_59, %mask_54 : !pto.vreg<64xf32>, !pto.vreg<64xf32>, !pto.mask<b32> -> !pto.vreg<64xf32>
          %51 = arith.subi %c32_11, %arg1 : index
          %subview_60 = memref.subview %21[%arg0, %arg1] [%c1_9, %51] [%c1_9, %c1_9] : memref<32x32xf32, #pto.address_space<vec>> to memref<?x?xf32, strided<[?, ?], offset: ?>, #pto.address_space<vec>>
          pto.vsts %50, %subview_60[%c0_8], %mask_54 : !pto.vreg<64xf32>, memref<?x?xf32, strided<[?, ?], offset: ?>, #pto.address_space<vec>>, !pto.mask<b32>
          %mask_61, %scalar_out_62 = pto.plt_b32 %arg5 : i32 -> !pto.mask<b32>, i32
          %52 = pto.tile_buf_addr %7 : !pto.tile_buf<vec, 32x32xf32> -> memref<32x32xf32, #pto.address_space<vec>>
          %53 = arith.subi %c32_17, %arg1 : index
          %subview_63 = memref.subview %52[%arg0, %arg1] [%c1_15, %53] [%c1_15, %c1_15] : memref<32x32xf32, #pto.address_space<vec>> to memref<?x?xf32, strided<[?, ?], offset: ?>, #pto.address_space<vec>>
          %result_64 = pto.vlds %subview_63[%c0_14] : memref<?x?xf32, strided<[?, ?], offset: ?>, #pto.address_space<vec>> -> !pto.vreg<64xf32>
          %54 = pto.vexp %result_64, %mask_61 : !pto.vreg<64xf32>, !pto.mask<b32> -> !pto.vreg<64xf32>
          %55 = pto.tile_buf_addr %9 : !pto.tile_buf<vec, 32x32xf32> -> memref<32x32xf32, #pto.address_space<vec>>
          %56 = arith.subi %c32_17, %arg1 : index
          %subview_65 = memref.subview %55[%arg0, %arg1] [%c1_15, %56] [%c1_15, %c1_15] : memref<32x32xf32, #pto.address_space<vec>> to memref<?x?xf32, strided<[?, ?], offset: ?>, #pto.address_space<vec>>
          pto.vsts %54, %subview_65[%c0_14], %mask_61 : !pto.vreg<64xf32>, memref<?x?xf32, strided<[?, ?], offset: ?>, #pto.address_space<vec>>, !pto.mask<b32>
          %mask_66, %scalar_out_67 = pto.plt_b32 %arg6 : i32 -> !pto.mask<b32>, i32
          %57 = pto.tile_buf_addr %8 : !pto.tile_buf<vec, 32x32xf32> -> memref<32x32xf32, #pto.address_space<vec>>
          %58 = arith.subi %c32_23, %arg1 : index
          %subview_68 = memref.subview %57[%arg0, %arg1] [%c1_21, %58] [%c1_21, %c1_21] : memref<32x32xf32, #pto.address_space<vec>> to memref<?x?xf32, strided<[?, ?], offset: ?>, #pto.address_space<vec>>
          %result_69 = pto.vlds %subview_68[%c0_20] : memref<?x?xf32, strided<[?, ?], offset: ?>, #pto.address_space<vec>> -> !pto.vreg<64xf32>
          %59 = pto.vexp %result_69, %mask_66 : !pto.vreg<64xf32>, !pto.mask<b32> -> !pto.vreg<64xf32>
          %60 = pto.tile_buf_addr %10 : !pto.tile_buf<vec, 32x32xf32> -> memref<32x32xf32, #pto.address_space<vec>>
          %61 = arith.subi %c32_23, %arg1 : index
          %subview_70 = memref.subview %60[%arg0, %arg1] [%c1_21, %61] [%c1_21, %c1_21] : memref<32x32xf32, #pto.address_space<vec>> to memref<?x?xf32, strided<[?, ?], offset: ?>, #pto.address_space<vec>>
          pto.vsts %59, %subview_70[%c0_20], %mask_66 : !pto.vreg<64xf32>, memref<?x?xf32, strided<[?, ?], offset: ?>, #pto.address_space<vec>>, !pto.mask<b32>
          %mask_71, %scalar_out_72 = pto.plt_b32 %arg7 : i32 -> !pto.mask<b32>, i32
          %62 = arith.subi %c32_29, %arg1 : index
          %subview_73 = memref.subview %22[%arg0, %arg1] [%c1_27, %62] [%c1_27, %c1_27] : memref<32x32xf32, #pto.address_space<vec>> to memref<?x?xf32, strided<[?, ?], offset: ?>, #pto.address_space<vec>>
          %result_74 = pto.vlds %subview_73[%c0_26] : memref<?x?xf32, strided<[?, ?], offset: ?>, #pto.address_space<vec>> -> !pto.vreg<64xf32>
          %63 = arith.subi %c32_29, %arg1 : index
          %subview_75 = memref.subview %23[%arg0, %arg1] [%c1_27, %63] [%c1_27, %c1_27] : memref<32x32xf32, #pto.address_space<vec>> to memref<?x?xf32, strided<[?, ?], offset: ?>, #pto.address_space<vec>>
          %result_76 = pto.vlds %subview_75[%c0_26] : memref<?x?xf32, strided<[?, ?], offset: ?>, #pto.address_space<vec>> -> !pto.vreg<64xf32>
          %64 = pto.vmul %result_74, %result_76, %mask_71 : !pto.vreg<64xf32>, !pto.vreg<64xf32>, !pto.mask<b32> -> !pto.vreg<64xf32>
          %65 = arith.subi %c32_29, %arg1 : index
          %subview_77 = memref.subview %24[%arg0, %arg1] [%c1_27, %65] [%c1_27, %c1_27] : memref<32x32xf32, #pto.address_space<vec>> to memref<?x?xf32, strided<[?, ?], offset: ?>, #pto.address_space<vec>>
          pto.vsts %64, %subview_77[%c0_26], %mask_71 : !pto.vreg<64xf32>, memref<?x?xf32, strided<[?, ?], offset: ?>, #pto.address_space<vec>>, !pto.mask<b32>
          %mask_78, %scalar_out_79 = pto.plt_b32 %arg8 : i32 -> !pto.mask<b32>, i32
          %66 = arith.subi %c32_35, %arg1 : index
          %subview_80 = memref.subview %25[%arg0, %arg1] [%c1_33, %66] [%c1_33, %c1_33] : memref<32x32xf32, #pto.address_space<vec>> to memref<?x?xf32, strided<[?, ?], offset: ?>, #pto.address_space<vec>>
          %result_81 = pto.vlds %subview_80[%c0_32] : memref<?x?xf32, strided<[?, ?], offset: ?>, #pto.address_space<vec>> -> !pto.vreg<64xf32>
          %67 = arith.subi %c32_35, %arg1 : index
          %subview_82 = memref.subview %26[%arg0, %arg1] [%c1_33, %67] [%c1_33, %c1_33] : memref<32x32xf32, #pto.address_space<vec>> to memref<?x?xf32, strided<[?, ?], offset: ?>, #pto.address_space<vec>>
          %result_83 = pto.vlds %subview_82[%c0_32] : memref<?x?xf32, strided<[?, ?], offset: ?>, #pto.address_space<vec>> -> !pto.vreg<64xf32>
          %68 = pto.vmul %result_81, %result_83, %mask_78 : !pto.vreg<64xf32>, !pto.vreg<64xf32>, !pto.mask<b32> -> !pto.vreg<64xf32>
          %69 = arith.subi %c32_35, %arg1 : index
          %subview_84 = memref.subview %27[%arg0, %arg1] [%c1_33, %69] [%c1_33, %c1_33] : memref<32x32xf32, #pto.address_space<vec>> to memref<?x?xf32, strided<[?, ?], offset: ?>, #pto.address_space<vec>>
          pto.vsts %68, %subview_84[%c0_32], %mask_78 : !pto.vreg<64xf32>, memref<?x?xf32, strided<[?, ?], offset: ?>, #pto.address_space<vec>>, !pto.mask<b32>
          %mask_85, %scalar_out_86 = pto.plt_b32 %arg9 : i32 -> !pto.mask<b32>, i32
          %70 = arith.subi %c32_41, %arg1 : index
          %subview_87 = memref.subview %28[%arg0, %arg1] [%c1_39, %70] [%c1_39, %c1_39] : memref<32x32xf32, #pto.address_space<vec>> to memref<?x?xf32, strided<[?, ?], offset: ?>, #pto.address_space<vec>>
          %result_88 = pto.vlds %subview_87[%c0_38] : memref<?x?xf32, strided<[?, ?], offset: ?>, #pto.address_space<vec>> -> !pto.vreg<64xf32>
          %71 = arith.subi %c32_41, %arg1 : index
          %subview_89 = memref.subview %29[%arg0, %arg1] [%c1_39, %71] [%c1_39, %c1_39] : memref<32x32xf32, #pto.address_space<vec>> to memref<?x?xf32, strided<[?, ?], offset: ?>, #pto.address_space<vec>>
          %result_90 = pto.vlds %subview_89[%c0_38] : memref<?x?xf32, strided<[?, ?], offset: ?>, #pto.address_space<vec>> -> !pto.vreg<64xf32>
          %72 = pto.vadd %result_88, %result_90, %mask_85 : !pto.vreg<64xf32>, !pto.vreg<64xf32>, !pto.mask<b32> -> !pto.vreg<64xf32>
          %73 = arith.subi %c32_41, %arg1 : index
          %subview_91 = memref.subview %30[%arg0, %arg1] [%c1_39, %73] [%c1_39, %c1_39] : memref<32x32xf32, #pto.address_space<vec>> to memref<?x?xf32, strided<[?, ?], offset: ?>, #pto.address_space<vec>>
          pto.vsts %72, %subview_91[%c0_38], %mask_85 : !pto.vreg<64xf32>, memref<?x?xf32, strided<[?, ?], offset: ?>, #pto.address_space<vec>>, !pto.mask<b32>
          scf.yield %scalar_out, %scalar_out_48, %scalar_out_55, %scalar_out_62, %scalar_out_67, %scalar_out_72, %scalar_out_79, %scalar_out_86 : i32, i32, i32, i32, i32, i32, i32, i32
        }
      }
      pto.yield() : () -> ()
    } {pto.fusion.group_id = 0 : i64} : 
    return
  }
}

2026-06-10 10:14:07,458 - __main__ - INFO - Received shutdown signal
2026-06-10 10:14:07,458 - tilelang_dsl.daemon_server - INFO - Server cancelled
2026-06-10 10:14:07,458 - tilelang_dsl.daemon_server - INFO - RPC server stopped
2026-06-10 10:14:07,458 - __main__ - INFO - Daemon shutdown complete
TileLang daemon stopped (pid=83987)
